qos_model.pth (torch, 3885 bytes, 5 tensors)

model.0.weight f4 [16, 3]
0.4956547 -0.15508077 0.38621247 -0.33198002 0.4749128 0.18147992 -0.009823974 -0.049354944
0.73635477 -0.1503694 -0.16500579 0.8227838 -0.24382064 -0.031721294 -0.47362533 -0.17448762
-0.2471335 -0.5389214 0.56534517 0.50640094 -0.38113037 0.33491108 -0.20436996 0.8022413
-0.117682695 -0.024774909 -0.22660428 -0.18363832 0.1252677 0.7015453 0.0047960286 0.50525
-0.027429566 -0.4852026 0.025552435 0.0210397 0.22823797 -0.06615596 -0.7108921 0.31171867
-0.09187612 -0.38093346 0.4142734 -0.4410267 0.07389397 0.5337524 0.3456882 0.39183155
00000000: 74c6 fd3e 7ecd 1ebe a4bd c53e 49f9 a9be
00000010: c527 f33e dfd5 393e bcf4 20bc 6928 4abd
00000020: bf81 3c3f 70fa 19be 47f7 28be f6a1 523f
00000030: 1eac 79be 30ee 01bd 057f f2be e2ac 32be
00000040: 9010 7dbe c1f6 09bf 76ba 103f 7ea3 013f
00000050: 8523 c3be 7779 ab3e 5c46 51be b05f 4d3f
00000060: a003 f1bd c0f4 cabc f40a 68be af0b 3cbe
00000070: 2d46 003e 7998 333f 0128 9d3b 1058 013f
00000080: f8b3 e0bc 7a6c f8be 5753 d13c 735b ac3c
00000090: 37b7 693e c77c 87bd 06fd 35bf 9799 9f3e
000000a0: 8c29 bcbd b609 c3be a51b d43e 40ce e1be
000000b0: b955 973d ffa3 083f 0bfe b03e 259e c83e

model.0.bias f4 [16]
0.018555222 -0.43760782 0.13503756 0.63378865 -0.33358 -0.15246105 -0.05833886 -0.07980601
-0.109611094 0.3478684 -0.12854365 -0.11732086 -0.13988169 0.43613634 0.31184852 -0.10695238
00000000: 1f01 983c 220e e0be 4947 0a3e f93f 223f
00000010: ffca aabe c01e 1cbe baf4 6ebd 5571 a3bd
00000020: c87b e0bd cf1b b23e f2a0 03be eb45 f0bd
00000030: 253d 0fbe 434d df3e 9caa 9f3e d909 dbbd

model.3.weight f4 [8, 16]
-0.106549226 0.11509054 -0.0017528974 -0.20067923 -0.092104256 0.15708461 -0.22393675 0.028819315
-0.022418529 -0.2835567 0.19987315 -0.17408498 -0.09496766 0.1767528 -0.08690976 -0.17824908
0.1890889 0.06348987 0.06116344 -0.02321531 0.087124586 -0.16840816 0.09518827 0.057996828
0.23956329 -0.03589152 0.08228078 -0.16527066 -0.37496778 0.19212297 -0.23684792 0.0495427
0.093320586 -0.0015198544 0.25209334 0.21996756 0.026662618 0.09417817 -0.009850187 0.21913254
0.18372118 0.28621647 -0.08492951 -0.13116255 -0.030276777 -0.105373695 0.09190505 -0.061798643
-0.1985331 -0.21710604 0.040205024 -0.014975938 0.22647932 0.22516322 0.114707515 0.2717753
0.23425904 0.2505688 0.15920438 0.118786015 -0.05350976 -0.19328722 0.024437984 -0.035250157
-0.14535928 0.046176843 -0.034913488 -0.09464945 -0.035601616 -0.20796409 -0.027460372 -0.20987827
0.14298487 -0.2459327 -0.059180547 0.18420903 0.1872473 -0.07108647 -0.21900961 0.04964426
-0.0011720024 0.09259671 0.23615761 0.17411998 0.21822962 -0.015309662 -0.19351222 -0.058567073
-0.111652344 0.25962034 -0.16681544 0.1868711 -0.3567966 0.14935446 0.028787872 0.22902198
0.09764138 0.021297043 0.35143346 0.34777823 0.19075206 0.14785388 -0.03358981 -0.10327074
0.09928462 0.21752691 -0.06469056 -0.20319928 -0.0884425 -0.0007597024 0.12586567 0.03774338
0.081048794 0.16035748 0.14723808 0.1545753 0.12095311 0.21517399 -0.06656837 -0.04780963
0.09222835 -0.4361923 0.17607273 0.1031594 -0.003800237 -0.07300542 0.04436645 -0.08032909
00000000: 7b36 dabd 97b4 eb3d 7ac1 e5ba db7e 4dbe
00000010: 28a1 bcbd cada 203e ad4f 65be 7c16 ec3c
00000020: 10a7 b7bc 582e 91be 8cab 4c3e 5543 32be
00000030: 687e c2bd b0fe 343e bffd b1bd ed86 36be
00000040: 85a0 413e fa06 823d 8486 7a3d 092e bebc
00000050: 606e b23d 3073 2cbe 11f2 c23d 158e 6d3d
00000060: 1450 753e fd02 13bd d382 a83d b63c 29be
00000070: c7fb bfbe e2bb 443e 4388 72be 49ed 4a3d
00000080: dd1e bf3d da35 c7ba 6112 813e 2d3f 613e
00000090: 906b da3c 7ce0 c03d ae62 21bc 4864 603e
000000a0: 6821 3c3e f78a 923e 86ef adbd 7a4f 06be
000000b0: 0107 f8bc 2ace d7bd b738 bc3d 9320 7dbd
000000c0: 434c 4bbe 0c51 5ebe 06ae 243d a35d 75bc
000000d0: 32ea 673e 3091 663e c6eb ea3d 2226 8b3e
000000e0: 9ae1 6f3e 8e4a 803e 7906 233e 1546 f33d
000000f0: 0d2d 5bbd 16ed 45be 2b32 c83c 7862 10bd
00000100: 10d9 14be ee23 3d3d 7201 0fbd 92d7 c1bd
00000110: 00d3 11bd 8af4 54be 93f4 e0bc 54ea 56be
00000120: a06a 123e c8d5 7bbe 4d67 72bd 4ba1 3c3e
00000130: c2bd 3f3e c895 91bd 0e44 60be c857 4b3d
00000140: e09d 99ba 58a3 bd3d 4dd3 713e 824c 323e
00000150: 9677 5f3e 60d5 7abc 1128 46be 07e4 6fbd
00000160: fca9 e4bd f5ec 843e abd1 2abe 235b 3f3e
00000170: 0bae b6be 60f0 183e 8bd4 eb3c bd84 6a3e
00000180: 34f8 c73d 2377 ae3c 16ef b33e fd0f b23e
00000190: 8254 433e 0267 173e 7895 09bd 9c7f d3bd
000001a0: bc55 cb3d 60bf 5e3e 7c7c 84bd 7913 50be
000001b0: 5721 b5bd c426 47ba eee2 003e cd98 1a3d
000001c0: e9fc a53d c034 243e 94c5 163e fd48 1e3e
000001d0: 44b6 f73d 9256 5c3e ff54 88bd 08d4 43bd
000001e0: 38e2 bc3d 9954 dfbe 694c 343e 3c45 d33d
000001f0: 660d 79bb de83 95bd 98b9 353d 9483 a4bd

model.3.bias f4 [8]
-0.0942305 0.34313035 0.27280605 0.22070612 -0.080878906 0.26376283 0.02141934 0.049146835
00000000: ecfb c0bd c8ae af3e 3cad 8b3e c900 623e
00000010: d7a3 a5bd ec0b 873e 9d77 af3c 314e 493d

model.5.weight f4 [1, 8]
0.12730491 0.17867038 0.13028845 0.26504377 -0.2589851 0.17979982 0.25042018 0.42225394
00000000: 385c 023e 5ef5 363e 566a 053e d1b3 873e
00000010: b299 84be 721d 383e 1337 803e ab31 d83e
