qos_model.pth (torch, 3885 bytes, 5 tensors)

model.0.weight f4 [16, 3]
0.27636793 -0.1106965 0.21252416 -0.065781415 -0.49253583 0.06627697 -0.050439857 0.4168594
-0.6885024 -0.4963941 0.016573727 -0.39444315 0.3441323 -0.21856485 0.50313133 0.14838919
-0.050823096 0.47828132 -0.0076268055 -0.37717152 -0.21579677 0.08162129 0.16374157 0.4366568
0.16662939 -0.16556305 -0.88333267 0.21621361 -0.33118522 0.76572543 0.0687114 0.08492286
-0.9091317 -0.11095061 -0.0011615581 0.79202765 0.008059438 0.04378058 -0.52297425 -0.14950293
-0.15643296 0.6800761 -0.16425902 0.1665396 0.2529808 -0.19332325 0.4266171 0.39351195
00000000: 1980 8d3e d9b4 e2bd ef9f 593e 68b8 86bd
00000010: a82d fcbe 38bc 873d 069a 4ebd 986e d53e
00000020: b141 30bf 5e27 febe a0c5 873c 74f4 c9be
00000030: 1c32 b03e 77cf 5fbe 37cd 003f 56f3 173e
00000040: e12b 50bd 4ae1 f43e 48ea f9bb a01c c1be
00000050: d4f9 5cbe 1029 a73d dfab 273e 7b91 df3e
00000060: e5a0 2a3e 5c89 29be 1722 62bf 1a67 5d3e
00000070: 1c91 a9be 9506 443f 90b8 8c3d 09ec ad3d
00000080: dbbc 68bf 133a e3bd 6c3f 98ba 53c2 4a3f
00000090: bc0b 043c 4453 333d a4e1 05bf 4c17 19be
000000a0: f62f 20be 7819 2e3f 8433 28be 5b89 2a3e
000000b0: b386 813e 88f6 45be 8e6d da3e 667a c93e

model.0.bias f4 [16]
-0.16844417 -0.17776707 -0.4819816 -0.34925762 -0.15753698 -0.027342662 -0.0020347682 -0.22915082
0.40597317 0.15889075 0.43010643 0.4406071 0.3559693 0.5579932 -0.13246162 -0.10534783
00000000: a17c 2cbe 9208 36be 4bc6 f6be e5d1 b2be
00000010: 6051 21be b8fd dfbc bf59 05bb 83a6 6abe
00000020: b7db cf3e 42b4 223e e936 dc3e 4197 e13e
00000030: 9c41 b63e a4d8 0e3f 05a4 07be 9ac0 d7bd

model.3.weight f4 [8, 16]
-0.16456851 0.028824627 0.25761393 -0.15864956 0.0031596087 -0.110422805 0.007832736 0.038684197
-0.10809624 -0.25648895 -0.21479787 -0.091883376 -0.015432718 -0.04275031 0.28391427 0.16894147
-0.15854901 0.07381213 -0.11154966 -0.16953903 -0.08181501 0.038544133 0.1055011 -0.19883417
-0.036486015 -0.01411197 -0.04827168 -0.12598497 -0.25777248 -0.2585081 0.29864973 -0.09947838
-0.10434226 -0.02987504 -0.12623204 0.22844762 -0.11097112 0.072353005 -0.07523878 -0.06319325
0.13139217 -0.04883268 0.13013929 -0.32010347 0.03530219 0.17743422 -0.0913425 0.23332202
-0.015562457 0.22401604 -0.07384598 -0.19482446 0.12894629 0.18186669 0.16212441 0.081965715
-0.3219772 -0.088010006 -0.20431554 0.061023712 -0.35839537 0.042290084 0.24726151 -0.054025557
0.080069706 0.06678593 0.077749506 -0.07104242 -0.028633988 -0.029442333 -0.17441685 0.13127151
-0.24249457 0.07436423 -0.25620165 0.19097301 -0.24718964 0.13703172 0.12053372 0.031467795
0.099750355 0.09229058 0.116952084 0.24406144 -0.04660558 -0.02314019 -0.12897788 0.011373737
-0.2277723 0.106572114 -0.13545741 -0.53584 -0.3374924 0.29583448 0.22327183 0.074843675
0.087010555 0.082820624 -0.08158829 0.14323407 0.15325633 0.08365834 -0.04978032 -0.030227417
-0.012840449 0.1589531 0.07042772 0.13572033 -0.2530363 0.24396029 -0.1925727 -0.010689484
0.031331517 -0.18658108 -0.2688552 -0.2244583 -0.0056209676 0.072017826 0.09208475 0.04478678
-0.27222046 0.0844197 -0.31528863 0.30595607 -0.32974464 -0.12586354 0.09863478 0.20854653
00000000: a684 28be a021 ec3c f9e5 833e 0875 22be
00000010: 7011 4f3b 5a25 e2bd e054 003c 5273 1e3d
00000020: 9061 ddbd 8552 83be f9f3 5bbe 5a2d bcbd
00000030: 83d9 7cbc f31a 2fbd 365d 913e fefe 2c3e
00000040: ac5a 22be d02a 973d 2674 e4bd a49b 2dbe
00000050: a18e a7bd 74e0 1d3d f610 d83d 2f9b 4bbe
00000060: 5c72 15bd e435 67bc 86b8 45bd 3402 01be
00000070: c1fa 83be 2c5b 84be 9ee8 983e 52bb cbbd
00000080: 65b1 d5bd 80bc f4bc f942 01be 2cee 693e
00000090: d444 e3bd d02d 943d ca16 9abd 766b 81bd
000000a0: ab8b 063e c704 48bd 3c43 053e 9ae4 a3be
000000b0: 0799 103d 51b1 353e c711 bbbd f8eb 6e3e
000000c0: adf9 7ebc 7664 653e 903c 97bd 1080 47be
000000d0: 7f0a 043e 433b 3a3e f103 263e a4dd a73d
000000e0: 32da a4be 973e b4bd 1838 51be 00f4 793d
000000f0: 997f b7be 5e38 2d3d 1f32 7d3e e749 5dbd
00000100: 96fb a33d 10c7 883d 223b 9f3d b07e 91bd
00000110: d391 eabc 0c31 f1bc 559a 32be 0a6c 063e
00000120: 7f50 78be 464c 983d dd2c 83be 6e8e 433e
00000130: 481f 7dbe 0b52 0c3e 62da f63d 60e4 003d
00000140: ea49 cc3d d802 bd3d 9384 ef3d 3eeb 793e
00000150: 7ee5 3ebd 7f90 bdbc c712 04be e958 3a3c
00000160: 243d 69be 7b42 da3d 59b5 0abe cf2c 09bf
00000170: cecb acbe 9e77 973e 5fa1 643e a447 993d
00000180: 9732 b23d dc9d a93d c317 a7bd f4ab 123e
00000190: 3aef 1c3e 1055 ab3d 73e6 4bbd 7d9f f7bc
000001a0: bf60 52bc 9ac4 223e 693c 903d 45fa 0a3e
000001b0: f98d 81be bad0 793e c731 45be f222 2fbc
000001c0: 7a55 003d 1c0f 3fbe 64a7 89be 66d8 65be
000001d0: 1830 b8bb 157e 933d ee96 bc3d 5872 373d
000001e0: 7b60 8bbe 3ce4 ac3d 836d a1be 46a6 9c3e
000001f0: 4ad4 a8be 5fe2 00be 0801 ca3d 398d 553e

model.3.bias f4 [8]
0.024959186 0.15191506 -0.030537326 0.13416107 0.15652947 0.075375214 0.27493128 0.2147783
00000000: 3577 cc3c 9f8f 1b3e 6a29 fabc 8561 093e
00000010: 4349 203e 525e 9a3d cbc3 8c3e d8ee 5b3e

model.5.weight f4 [1, 8]
-0.23902023 0.16213763 0.13576382 0.29297107 0.31241095 0.32375595 0.097616576 0.23549835
00000000: b8c1 74be 6807 263e ac05 0b3e 4e00 963e
00000010: 54f4 9f3e 57c3 a53e 33eb c73d 7b26 713e
