qos_model.pth (torch, 3885 bytes, 5 tensors)

model.0.weight f4 [16, 3]
0.22282845 -0.3098013 0.5033606 -0.20352316 -0.5383201 -0.43909067 0.45222622 -0.5080554
-0.07718467 0.31916904 -0.42376488 0.08739794 0.519578 -0.6047393 -0.51669574 0.32902044
-0.36141193 -0.38453427 -0.042114317 -0.39969227 0.13415372 0.13865514 -0.104739934 -0.5237357
-0.47474498 -0.1989153 0.15685225 0.32156068 0.10511437 -0.03893151 -0.20266189 0.014086427
0.5599326 -0.06610972 0.07023949 0.63081706 0.5651934 -0.3512346 -0.0850946 -0.053576346
0.38852453 -0.4435883 0.12128446 0.44930574 0.28221732 0.3987507 -0.121333286 -0.1250168
00000000: 242d 643e 479e 9ebe 3edc 003f 6068 50be
00000010: 59cf 09bf 7ed0 e0be 328a e73e eb0f 02bf
00000020: ff12 9ebd 206a a33e b6f7 d8be b1fd b23d
00000030: 1003 053f 32d0 1abf 2c46 04bf 5e75 a83e
00000040: fc0a b9be ade1 c4be 1080 2cbd 77a4 ccbe
00000050: 985f 093e 9dfb 0d3e e481 d6bd 8b13 06bf
00000060: c611 f3be 74b0 4bbe e09d 203e 9aa3 a43e
00000070: 3446 d73d a676 1fbd 9986 4fbe c2ca 663c
00000080: be57 0f3f 8864 87bd b9d9 8f3d 3a7d 213f
00000090: 84b0 103f 06d5 b3be 1446 aebd df72 5bbd
000000a0: b0ec c63e 011e e3be fd63 f83d 670b e63e
000000b0: ca7e 903e 0d29 cc3e 967d f8bd 6704 00be

model.0.bias f4 [16]
0.22642766 -0.05648625 0.24024025 0.052417565 -0.135075 -0.25862315 -0.4564175 0.5301036
-0.5025919 -0.21479188 0.28645864 0.12707907 -0.19111887 -0.30596802 -0.15614091 0.19266614
00000000: a7dc 673e 205e 67bd 8a01 763e cdb3 563d
00000010: 1a51 0abe 416a 84be 8eaf e9be dfb4 073f
00000020: dda9 00bf 67f2 5bbe b5aa 923e 0421 023e
00000030: aab4 43be d7a7 9cbe 67e3 1fbe 464a 453e

model.3.weight f4 [8, 16]
0.010906473 0.23308143 0.01987658 -0.067139335 0.27810732 0.28809378 -0.1683636 -0.16381694
-0.0007867217 0.13855875 -0.24327031 -0.28174242 0.21191104 -0.100269474 0.07383631 -0.22026426
0.064684786 0.1584141 -0.0001749066 0.09954998 0.022182433 -0.18103543 0.115881324 -0.2646405
-0.10058537 0.05024338 0.23388937 0.43363252 0.19739243 -0.24998999 0.018558552 -0.12839812
0.16752239 -0.24488166 0.029662788 -0.022303676 -0.10454288 -0.14117773 0.08631769 -0.08912927
0.14706784 0.06815035 0.23572738 0.072694704 -0.11476051 -0.06665022 0.098680176 0.14452271
0.11057258 0.03971657 0.107387386 0.02690276 0.16286378 -0.2227319 -0.042840928 -0.10430098
0.15272486 0.11961063 0.13474253 -0.22840214 0.09298428 0.120880574 -0.029242538 -0.12051885
-0.19389082 0.18770966 -0.16557701 0.13659634 -0.1887459 -0.1818057 -0.026432365 -0.054612644
0.14837417 -0.011455483 -0.022920726 0.037173945 -0.11103139 0.21244952 -0.1971902 -0.15039052
0.04320768 0.06710836 0.14456883 -0.20157684 -0.17802249 -0.0073384386 -0.08873853 -0.054608773
-0.05915433 0.13894777 -0.20894761 -0.18755251 -0.110203974 -0.10911913 -0.12765656 0.1651249
0.29699862 -0.07127109 0.036137912 -0.17035946 -0.055151317 0.088951446 -0.03429815 -0.18986557
-0.016418725 -0.05862656 0.07682789 -0.46197894 -0.12917474 -0.054057818 0.06993377 -0.0067001698
-0.12800384 -0.08688307 0.08854134 -0.15263417 0.068066835 -0.22936761 -0.15270206 0.2037821
-0.0080678165 -0.12811638 0.05525126 -0.06433085 -0.026270928 0.24332294 0.10199459 -0.2368076
00000000: 10b1 323c e6ac 6e3e 36d4 a23c 5980 89bd
00000010: 1564 8e3e 0781 933e 8267 2cbe a1bf 27be
00000020: 003c 4eba 58e2 0d3e da1b 79be 8b40 90be
00000030: 35ff 583e 155a cdbd 7e37 973d f48c 61be
00000040: 7579 843d 4e37 223e 2267 37b9 dce0 cb3d
00000050: efb7 b53c 5a61 39be 3053 ed3d f67e 87be
00000060: b4ff cdbd 01cc 4d3d b280 6f3e 1505 de3e
00000070: 3e21 4a3e 60fd 7fbe 1b08 983c cc7a 03be
00000080: fd8a 2b3e 42c2 7abe 60ff f23c 33b6 b6bc
00000090: 941a d6bd e590 10be 54c7 b03d 6889 b6bd
000000a0: f498 163e 6992 8b3d 8562 713e f6e0 943d
000000b0: 8f07 ebbd e97f 88bd d518 ca3d c3fd 133e
000000c0: e073 e23d d8ad 223d ebed db3d 2d63 dc3c
000000d0: c3c5 263e d513 64be f879 2fbd c19b d5bd
000000e0: e863 1c3e 6bf6 f43d f2f9 093e 40e2 69be
000000f0: 8b6e be3d 3c90 f73d 0c8e efbc 96d2 f6bd
00000100: 518b 46be f636 403e 058d 29be e9df 0b3e
00000110: 9b46 41be 462b 3abe b088 d8bc 82b1 5fbd
00000120: 66ef 173e c7af 3bbc 3fc4 bbbc b543 183d
00000130: 6d64 e3bd 5e8c 593e 3aec 49be f9ff 19be
00000140: 89fa 303d 1c70 893d da09 143e 296a 4ebe
00000150: 874b 36be 4977 f0bb 8cbc b5bd 73ad 5fbd
00000160: d04b 72bd 5348 0e3e 5df6 55be c40d 40be
00000170: 9fb2 e1bd da79 dfbd 67b8 02be 8016 293e
00000180: 3410 983e 94f6 91bd 5905 143d b672 2ebe
00000190: 59e6 61bd 2d2c b63d 387c 0cbd 1f6c 42be
000001a0: 9080 86bc 6722 70bd f157 9d3d 8188 ecbe
000001b0: 6246 04be bb6b 5dbd 7039 8f3d 198d dbbb
000001c0: 7013 03be c0ef b1bd 2955 b53d 224c 1cbe
000001d0: a066 8b3d 58df 6abe ee5d 1cbe 41ac 503e
000001e0: e02e 04bc f130 03be 254f 623d e5bf 83bd
000001f0: 2136 d7bc a629 793e 8ae2 d03d b17d 72be

model.3.bias f4 [8]
-0.23291492 0.26181284 -0.011293515 -0.25234988 -0.122339234 0.09826942 0.12413981 0.06995527
00000000: 4081 6ebe 550c 863e 6f08 39bc 0134 81be
00000010: fe8c fabd 7a41 c93d 033d fe3d b544 8f3d

model.5.weight f4 [1, 8]
-0.123671755 0.32436797 0.20151809 -0.14407106 -0.12929352 -0.22115037 0.39714053 -0.25759202
00000000: 9e47 fdbd 8f13 a63e c25a 4e3e 5d87 13be
00000010: 8565 04be 3e75 62be 0156 cb3e 1ae3 83be
